Neural Network Tools for STM32AI v1.7.0 (STM.ai v8.0.1-19451)
Created date          : 2023-08-03 14:57:19
Parameters            : generate --name network -m C:/_Blaine/DEV_AI/TOF_From_Cloud/CNN2D_ST_HandPosture_8classes_hand_posture_ST_VL53L5CX_handposture_dataset.h5-B-U585I-IOT02A-project/B-U585I-IOT02A/CNN2D_ST_HandPosture_8classes_hand_posture_ST_VL53L5CX_handposture_dataset.h5 --type keras --compression none --verbosity 1 --workspace C:\Users\grand\AppData\Local\Temp\mxAI_workspace59335026898190017003263254110768242 --output C:\Users\grand\.stm32cubemx\network_output --allocate-inputs --series stm32u5 --allocate-outputs

Exec/report summary (generate)
------------------------------------------------------------------------------------------------------------------------------------------------------------------------------------------------------------------------------------------------------------
model file         :   C:\_Blaine\DEV_AI\TOF_From_Cloud\CNN2D_ST_HandPosture_8classes_hand_posture_ST_VL53L5CX_handposture_dataset.h5-B-U585I-IOT02A-project\B-U585I-IOT02A\CNN2D_ST_HandPosture_8classes_hand_posture_ST_VL53L5CX_handposture_dataset.h5   
type               :   keras                                                                                                                                                                                                                                
c_name             :   network                                                                                                                                                                                                                              
compression        :   none                                                                                                                                                                                                                                 
options            :   allocate-inputs, allocate-outputs                                                                                                                                                                                                    
optimization       :   balanced                                                                                                                                                                                                                             
target/series      :   stm32u5                                                                                                                                                                                                                              
workspace dir      :   C:\Users\grand\AppData\Local\Temp\mxAI_workspace59335026898190017003263254110768242                                                                                                                                                  
output dir         :   C:\Users\grand\.stm32cubemx\network_output                                                                                                                                                                                           
model_fmt          :   float                                                                                                                                                                                                                                
model_name         :   CNN2D_ST_HandPosture_8classes_hand_posture_ST_VL53L5CX_handposture_dataset                                                                                                                                                           
model_hash         :   e287d85db94a1ef90ae42cda488f8a73                                                                                                                                                                                                     
params #           :   2,752 items (10.75 KiB)                                                                                                                                                                                                              
------------------------------------------------------------------------------------------------------------------------------------------------------------------------------------------------------------------------------------------------------------
input 1/1          :   'input_1' (domain:activations/**default**)                                                                                                                                                                                           
                   :   128 items, 512 B, ai_float, float, (1,8,8,2)                                                                                                                                                                                         
output 1/1         :   'dense_1' (domain:activations/**default**)                                                                                                                                                                                           
                   :   8 items, 32 B, ai_float, float, (1,1,1,8)                                                                                                                                                                                            
macc               :   8,520                                                                                                                                                                                                                                
weights (ro)       :   11,008 B (10.75 KiB) (1 segment)                                                                                                                                                                                                     
activations (rw)   :   1,024 B (1024 B) (1 segment) *                                                                                                                                                                                                       
ram (total)        :   1,024 B (1024 B) = 1,024 + 0 + 0                                                                                                                                                                                                     
------------------------------------------------------------------------------------------------------------------------------------------------------------------------------------------------------------------------------------------------------------
(*) 'input'/'output' buffers can be used from the activations buffer

Model name - CNN2D_ST_HandPosture_8classes_hand_posture_ST_VL53L5CX_handposture_dataset ['input_1'] ['dense_1']
------ --------------------------------------- ---------------------- ------------- ------- --------------- --- --------------- ------------------ ----------------------------- 
m_id   layer (type,original)                   oshape                 param/size       macc    connected to   | c_size          c_macc             c_type                        
------ --------------------------------------- ---------------------- ------------- ------- --------------- --- --------------- ------------------ ----------------------------- 
0      input_1 (Input, InputLayer)             [b:None,h:8,w:8,c:2]                                           |                                    
------ --------------------------------------- ---------------------- ------------- ------- --------------- --- --------------- ------------------ ----------------------------- 
1      conv2d_conv2d (Conv2D, Conv2D)          [b:None,h:6,w:6,c:8]   152/608         5,192         input_1   | -608(-100.0%)   -5,192(-100.0%)    
------ --------------------------------------- ---------------------- ------------- ------- --------------- --- --------------- ------------------ ----------------------------- 
2      activation (Nonlinearity, Activation)   [b:None,h:6,w:6,c:8]                     288   conv2d_conv2d   |                 -288(-100.0%)      
------ --------------------------------------- ---------------------- ------------- ------- --------------- --- --------------- ------------------ ----------------------------- 
3      max_pooling2d (Pool, MaxPooling2D)      [b:None,h:3,w:3,c:8]                     288      activation   | +608(+100.0%)   +5,480(+1902.8%)   optimized_conv2d_of32[0]      
------ --------------------------------------- ---------------------- ------------- ------- --------------- --- --------------- ------------------ ----------------------------- 
5      flatten (Reshape, Flatten)              [b:None,c:72]                                  max_pooling2d   |                                    
------ --------------------------------------- ---------------------- ------------- ------- --------------- --- --------------- ------------------ ----------------------------- 
6      dense_dense (Dense, Dense)              [b:None,c:32]          2,336/9,344     2,336         flatten   |                 +32(+1.4%)         dense_of32/nl_of32[1, 2]      
       dense (Nonlinearity, Dense)             [b:None,c:32]                             32     dense_dense   |                 -32(-100.0%)       
------ --------------------------------------- ---------------------- ------------- ------- --------------- --- --------------- ------------------ ----------------------------- 
7      dense_1_dense (Dense, Dense)            [b:None,c:8]           264/1,056         264           dense   |                 +120(+45.5%)       dense_of32/nl_of32[o][3, 4]   
       dense_1 (Nonlinearity, Dense)           [b:None,c:8]                             120   dense_1_dense   |                 -120(-100.0%)      
------ --------------------------------------- ---------------------- ------------- ------- --------------- --- --------------- ------------------ ----------------------------- 
model/c-model: macc=8,520/8,520  weights=11,008/11,008  activations=--/1,024 io=--/0



Generated C-graph summary
------------------------------------------------------------------------------------------------------------------------
model name            : cnn2d_st_handposture_8classes_hand_posture_st_vl53l5cx_handposture_dataset
c-name                : network
c-node #              : 5
c-array #             : 13
activations size      : 1024 (1 segment)
weights size          : 11008 (1 segment)
macc                  : 8520
inputs                : ['input_1_output']
outputs               : ['dense_1_output']

C-Arrays (13)
------ ------------------------ ----------- ------------------------- ------------- --------- --------- 
c_id   name (*_array)           item/size   domain/mem-pool           c-type        fmt       comment   
------ ------------------------ ----------- ------------------------- ------------- --------- --------- 
0      conv2d_conv2d_weights    144/576     weights/weights           const float   float32             
1      conv2d_conv2d_bias       8/32        weights/weights           const float   float32             
2      dense_dense_weights      2304/9216   weights/weights           const float   float32             
3      dense_dense_bias         32/128      weights/weights           const float   float32             
4      input_1_output           128/512     activations/**default**   float         float32   /input    
5      conv2d_conv2d_output     72/288      activations/**default**   float         float32             
6      dense_1_dense_weights    256/1024    weights/weights           const float   float32             
7      dense_dense_output       32/128      activations/**default**   float         float32             
8      dense_output             32/128      activations/**default**   float         float32             
9      dense_1_dense_bias       8/32        weights/weights           const float   float32             
10     dense_1_dense_output     8/32        activations/**default**   float         float32             
11     dense_1_output           8/32        activations/**default**   float         float32   /output   
12     conv2d_conv2d_scratch0   96/384      activations/**default**   float         float32             
------ ------------------------ ----------- ------------------------- ------------- --------- --------- 

C-Layers (5)
------ ---------------- ---- ------------------- ------ ------ --------------------------- ------------------ 
c_id   name (*_layer)   id   layer_type          macc   rom    tensors                     shape (array id)   
------ ---------------- ---- ------------------- ------ ------ --------------------------- ------------------ 
0      conv2d_conv2d    3    optimized_conv2d    5768   608    I: input_1_output           (1,8,8,2) (4)      
                                                               S: conv2d_conv2d_scratch0                      
                                                               W: conv2d_conv2d_weights    (2,8,3,3) (0)      
                                                               W: conv2d_conv2d_bias       (1,1,1,8) (1)      
                                                               O: conv2d_conv2d_output     (1,3,3,8) (5)      
------ ---------------- ---- ------------------- ------ ------ --------------------------- ------------------ 
1      dense_dense      6    dense               2336   9344   I: conv2d_conv2d_output0    (1,1,1,72) (5)     
                                                               W: dense_dense_weights      (72,1,1,32) (2)    
                                                               W: dense_dense_bias         (1,1,1,32) (3)     
                                                               O: dense_dense_output       (1,1,1,32) (7)     
------ ---------------- ---- ------------------- ------ ------ --------------------------- ------------------ 
2      dense            6    nl                  32     0      I: dense_dense_output       (1,1,1,32) (7)     
                                                               O: dense_output             (1,1,1,32) (8)     
------ ---------------- ---- ------------------- ------ ------ --------------------------- ------------------ 
3      dense_1_dense    7    dense               264    1056   I: dense_output             (1,1,1,32) (8)     
                                                               W: dense_1_dense_weights    (32,1,1,8) (6)     
                                                               W: dense_1_dense_bias       (1,1,1,8) (9)      
                                                               O: dense_1_dense_output     (1,1,1,8) (10)     
------ ---------------- ---- ------------------- ------ ------ --------------------------- ------------------ 
4      dense_1          7    nl                  120    0      I: dense_1_dense_output     (1,1,1,8) (10)     
                                                               O: dense_1_output           (1,1,1,8) (11)     
------ ---------------- ---- ------------------- ------ ------ --------------------------- ------------------ 



Number of operations per c-layer
------- ------ ---------------------------------- ------- -------------- -------- ---------- 
c_id    m_id   name (type)                            #op           type   #param   sparsity 
------- ------ ---------------------------------- ------- -------------- -------- ---------- 
0       3      conv2d_conv2d (optimized_conv2d)     5,768   smul_f32_f32      152     0.0000 
1       6      dense_dense (dense)                  2,336   smul_f32_f32    2,336     0.0000 
2       6      dense (nl)                              32     op_f32_f32          
3       7      dense_1_dense (dense)                  264   smul_f32_f32      264     0.0000 
4       7      dense_1 (nl)                           120     op_f32_f32          
------- ------ ---------------------------------- ------- -------------- -------- ---------- 
total                                               8,520                   2,752     0.0000 

Number of operation types
---------------- ------- ----------- 
operation type         #           % 
---------------- ------- ----------- 
smul_f32_f32       8,368       98.2% 
op_f32_f32           152        1.8% 

Complexity report (model)
------ --------------- ------------------------- ------------------------- -------- 
m_id   name            c_macc                    c_rom                     c_id     
------ --------------- ------------------------- ------------------------- -------- 
3      max_pooling2d   ||||||||||||||||  67.7%   |                  5.5%   [0]      
6      dense_dense     |||||||           27.8%   ||||||||||||||||  84.9%   [1, 2]   
7      dense_1_dense   |                  4.5%   ||                 9.6%   [3, 4]   
------ --------------- ------------------------- ------------------------- -------- 
macc=8,520 weights=11,008 act=1,024 ram_io=0

Generated files (7)
------------------------------------------------------------------ 
C:\Users\grand\.stm32cubemx\network_output\network_config.h        
C:\Users\grand\.stm32cubemx\network_output\network.h               
C:\Users\grand\.stm32cubemx\network_output\network.c               
C:\Users\grand\.stm32cubemx\network_output\network_data_params.h   
C:\Users\grand\.stm32cubemx\network_output\network_data_params.c   
C:\Users\grand\.stm32cubemx\network_output\network_data.h          
C:\Users\grand\.stm32cubemx\network_output\network_data.c          
